AI_models/disease_prediction.pth (torch, 25448 bytes, 4 tensors)

Linear_Seasonal.weight f4 [24, 120]
0	0xbda88986	-0.082293555
1	0xbbc17f93	-0.0059051006
2	0x3c7fb39e	0.015606789
3	0xbd133899	-0.035942648
4	0x3cc26464	0.02372951
5	0xbb535442	-0.0032246266
6	0xbad61710	-0.0016333777
7	0x3d172c82	0.03690768
8	0xbc66539b	-0.014058019
9	0xbb693a60	-0.0035587773
10	0x3d3cb994	0.04607542
11	0xbc23a4c3	-0.009988013
12	0x3c921bed	0.017835582
13	0x3d024f87	0.031814124
14	0x3c6a6072	0.014305221
15	0x3c826076	0.015915137
16	0x3d131083	0.03590442
17	0x3c88cf3d	0.016700381
18	0x3d30cfbc	0.04316686
19	0x3d3707f0	0.044685304
20	0x3cdae6cf	0.026721386
21	0x3d032cc6	0.03202512
22	0x3d8a853b	0.06763693
23	0x3ca079c8	0.01958932
24	0x3d56e75b	0.05246673
25	0x3c1a6096	0.009422442
26	0x3d3e2419	0.046421144
27	0x3d8aec0b	0.06783303
28	0x3d26e68f	0.04074722
29	0x3d274510	0.040837348
30	0x3d4ebd5e	0.050473563
31	0x3ca9120f	0.020638494
32	0x3dacfb1f	0.08446335
33	0x3ca3fa23	0.020016735
34	0x3bd8c16e	0.0066148555
35	0x3da34f5c	0.07974121
36	0x3c417d30	0.011809632
37	0x3d05e399	0.032687757
38	0x3d32d8ed	0.043663908
39	0x3cf55a54	0.029950298
40	0x3d381df0	0.044950426
41	0x3ca1eef8	0.01976727
42	0x3ad96864	0.0016586897
43	0x3d4d8e39	0.050184462
44	0x3d24c535	0.040227134
45	0x3c999730	0.01874885
46	0x3cd5abc4	0.02608288
47	0x3c100457	0.008790097
48	0x3d9070d6	0.07052772
49	0x3c30bc7c	0.010787126
50	0x3ccf6255	0.025315443
51	0x3cd0740c	0.02544596
52	0x3c7441fd	0.014908311
53	0x3d5fb83a	0.05461905
54	0xbcf3f64a	-0.029780526
55	0x3cfc6e74	0.030814387
56	0x3d2db109	0.042405162
57	0xbcb55a0d	-0.022137666
58	0x3d11ae33	0.03556652
59	0x3be4e42a	0.006985207
60	0xbcbb7c60	-0.022886455
61	0x3dadc9b2	0.08485736
62	0xbcdc4a5d	-0.026890928
63	0x3cb11733	0.021617508
64	0xbd0e512e	-0.034745388
65	0x3d46267a	0.048376538
66	0x3d29926a	0.041399397
67	0xbc2a9305	-0.010411029
68	0xbcd8ab91	-0.026448997
69	0x3d4e627d	0.050386894
70	0x3bfff850	0.0078115836
71	0xbcb7d3f9	-0.022439944
72	0x3bf438f6	0.0074530793
73	0x3d2a7861	0.04161871
74	0xbd4d2f2f	-0.050093826
75	0x3d000c8f	0.031261977
76	0xbc56b53f	-0.013104736
77	0x3d08968c	0.033346698
78	0x3bb30f70	0.005464487
79	0x3c7580b0	0.014984295
80	0xbcae0fae	-0.021247711
81	0x3d76df1e	0.060271375
82	0xbd051f35	-0.032500464
83	0xbc4b0bda	-0.012392962
84	0x3c73d01c	0.01488116
85	0x3d31028e	0.043215327
86	0xbc859927	-0.01630838
87	0xbcad3f6a	-0.021148402
88	0xbb2a1bc2	-0.0025956486
89	0x3cbfaeb2	0.02339873
90	0xbc6d8b06	-0.014498478
91	0xbd1f109c	-0.0388342
92	0x3ceaef7a	0.028678644
93	0xbd80ef94	-0.06295696
94	0xbb6caa04	-0.003611208
95	0xbda00182	-0.078127876
96	0xbcdb08a2	-0.026737515
97	0xbb6871dc	-0.0035468256
98	0xbdb4ac13	-0.08821883
99	0xbdb3ea5e	-0.08784936
100	0xbdc49a3c	-0.0959973
101	0xbd497abe	-0.04918932
102	0xbda65ea9	-0.08123524
103	0xbdf84595	-0.12122647
104	0xbd9373eb	-0.07199844
105	0xbe20deff	-0.15710066
106	0xbd100062	-0.035156615
107	0xbe29dcfb	-0.16588204
108	0xbe1a4d15	-0.15068467
109	0xbdf861ea	-0.121280506
110	0xbdb021b7	-0.086001806
111	0xbe414006	-0.18872079
112	0xbd50de03	-0.050992977
113	0xbdfbfb56	-0.12303798
114	0xbd60cd33	-0.054883193
115	0x3c4cef11	0.01250817
116	0xbd5cf7d6	-0.053947292
117	0x3d484d77	0.048902
118	0x3d54d396	0.051959597
119	0x3d76985a	0.060203888
120	0xbce2a9ae	-0.0276688
121	0x3d40c2a6	0.04706063
122	0xbca94a07	-0.020665182
123	0x3c321246	0.010868615
124	0xbd2368f8	-0.039895028
125	0x3c636825	0.01387981
126	0x3c64e4c9	0.013970562
127	0xbd005067	-0.031326678
128	0xbcc4c7e8	-0.024021104
129	0x3b839cc4	0.0040164907
130	0xbc92ab86	-0.017904054
131	0xbd36c431	-0.044620696
132	0xbc29683e	-0.010339795
133	0xbcba2c68	-0.022726253
134	0xbd2ead0b	-0.042645495
135	0xbcf6774c	-0.030086182
136	0xbd4dc6a6	-0.050238274
137	0x3997d221	0.00028957523
138	0xbd7d4f16	-0.061843
139	0xbd587295	-0.05284365
140	0xb9ed9f9a	-0.00045323075
141	0xbda2bea0	-0.07946515
142	0xbc0a9ce5	-0.008460258
143	0xbd6508c7	-0.055916574
144	0x3c0c3214	0.008556861
145	0xbd71edf3	-0.059064817
146	0xbce0c862	-0.0274393
147	0xbcc20673	-0.023684716
148	0xbd5332bf	-0.051562067
149	0xbca197ea	-0.019725759
150	0xbc07237b	-0.008248205
151	0xbd1fbcee	-0.038998537
152	0xbd3215d1	-0.043477837
153	0x3bd25d64	0.0064198244
154	0xbd04dcc0	-0.032437086
155	0x3cfba6ea	0.03071924
156	0xbb129961	-0.0022369253
157	0xbd2a9081	-0.041641716
158	0x3d1e9af0	0.03872198
159	0x3bd25a8e	0.0064194864
160	0xbcd6b9b4	-0.026211597
161	0x3d7d4460	0.061832786
162	0xbc89e9b2	-0.016835067
163	0x3cc393b6	0.023874145
164	0xbcc3aecb	-0.023887059
165	0x3d2c74e4	0.042103663
166	0x3ca93bad	0.020658338
167	0x3ce44342	0.027864102
168	0xba29c2f5	-0.0006475889
169	0xbc8b0532	-0.01697025
170	0x3d11420f	0.03546339
171	0x3d697766	0.056998633
172	0xbcd9741b	-0.026544621
173	0xbcfd4931	-0.03091869
174	0x3d83495b	0.06410476
175	0x3c972c95	0.018453876
176	0xbc63da01	-0.013906957
177	0x3cd5dc53	0.026106035
178	0x3bc19469	0.0059075844
179	0x3d2e480f	0.04254919
180	0xbd14a962	-0.03629435
181	0x3cd5d73c	0.026103608
182	0x3d93fe45	0.072262324
183	0xbd058719	-0.032599542
184	0x3d7b2b8d	0.06132083
185	0xbcc9fd0a	-0.024656791
186	0x3c7af8de	0.015318124
187	0x3d7c3861	0.061577205
188	0x3d4e1530	0.050313175
189	0xbc6b789f	-0.01437202
190	0x3d4cf9a8	0.05004278
191	0x3d5b2765	0.053504366
192	0x3d0c2e13	0.034223627
193	0x3d0ae43b	0.033909064
194	0x3d50977e	0.050925724
195	0x3c8ef507	0.017450823
196	0x3da2897e	0.07936381
197	0xbbdc1fa1	-0.0067176376
198	0x3d96513d	0.07339714
199	0x3d3c996e	0.04604476
200	0x3cddf75e	0.027095493
201	0x3cb2259e	0.021746453
202	0x3d7b7dd9	0.061399315
203	0x3c8c5348	0.017129555
204	0x3d3e2bb7	0.04642841
205	0x3bcc4ac4	0.0062344987
206	0xbbaabf92	-0.0052108252
207	0x3d4988b3	0.049202632
208	0xbcc4c8b6	-0.024021488
209	0x3d10a324	0.035311833
210	0x3c2d68f0	0.010584101
211	0xbd618019	-0.055053804
212	0xbd073591	-0.03301007
213	0xbbde9b8a	-0.006793444
214	0x3c9914ab	0.018686613
215	0xbd91066a	-0.070813015
216	0xbd5e302d	-0.054245163
217	0xbdacfa3a	-0.084461644
218	0xbd75432f	-0.059878524
219	0xbcabd9d5	-0.020977894
220	0xbe03043f	-0.12794589
221	0xbdabfaaa	-0.0839742
222	0xbdfd04da	-0.12354441
223	0xbd667e47	-0.05627277
224	0xbe1be0be	-0.15222451
225	0xbd8c0153	-0.0683619
226	0xbd786831	-0.06064624
227	0xbdd843ac	-0.105597824
228	0xbe078d91	-0.13237597
229	0xbddd3c1c	-0.108024806
230	0xbe0c9ad3	-0.13730936
231	0xbe1329f3	-0.14371471
232	0xbd459def	-0.04824632
233	0xbd1ac593	-0.037786078
234	0xbdfa3878	-0.12217802
235	0xbcc5b5f2	-0.02413461
236	0x3c718dca	0.014743278
237	0x3d25c47f	0.040470596
238	0x3e05da47	0.13071547
239	0x3e4e0593	0.20119314
240	0xbc5ebb91	-0.013594524
241	0xbce564ca	-0.028002162
242	0xbc31172d	-0.010808748
243	0x3c07fa37	0.008299402
244	0xbca6f59f	-0.020380793
245	0x3a38c809	0.00070488505
246	0xbc29e521	-0.01036957
247	0xbd36996a	-0.0445799
248	0x3c821ec7	0.015883816
249	0xbca33a5e	-0.019925293
250	0xbcc9b9c7	-0.024624718
251	0x39140830	0.0001411743
252	0xbcceb3ce	-0.025232222
253	0xbc89eec9	-0.016837494
254	0xbcd330b1	-0.025780054
255	0xbc3eca02	-0.011644842

Linear_Seasonal.bias f4 [24]
0	0xbccdd010	-0.025123626
1	0x3d2ec496	0.042667948
2	0xbd80bcc4	-0.06286004
3	0xbc232de1	-0.009959669
4	0x3d657872	0.05602307
5	0xbd610316	-0.054934584
6	0xbd7869a6	-0.06064763
7	0xbd7a8835	-0.061165053
8	0x3d3bc540	0.04584241
9	0x3ceac9f4	0.028660752
10	0x3c83e8b8	0.01610218
11	0x3ad1adf2	0.0015997274
12	0x3b5a59e0	0.003331773
13	0xbbba0836	-0.0056772484
14	0x3be0693e	0.0068484833
15	0xbd99340c	-0.0748063
16	0xbc764ca5	-0.015032922
17	0x3c82f901	0.015987875
18	0xbc9f9a2b	-0.019482693
19	0xbc8b1bf3	-0.0169811
20	0xbc2e5b12	-0.01064183
21	0xbd96d2c6	-0.073644206
22	0xbc065ec4	-0.008201305
23	0xbd9376f8	-0.07200426

Linear_Trend.weight f4 [24, 120]
0	0xbd6333f9	-0.055469487
1	0x3d670e1e	0.056409948
2	0x3c7f93e3	0.015599224
3	0x3d62c18f	0.055360373
4	0x3d5761fb	0.052583676
5	0xbbbdea9d	-0.0057957903
6	0x3d655020	0.055984616
7	0xbcdbb5e6	-0.026820134
8	0xbc132492	-0.008980887
9	0xbd72065c	-0.059088096
10	0xbd3ce82a	-0.046119846
11	0x3d5bbbc2	0.053645857
12	0x3d0705a3	0.03296436
13	0xbc0103dd	-0.007874456
14	0x3d0830b2	0.033249564
15	0xbcb36c1f	-0.021902142
16	0xbcfcd3ef	-0.030862777
17	0xbcfd08c6	-0.030887973
18	0xbd9a7c23	-0.075432085
19	0x3be3b6e2	0.0069492916
20	0xbc552b27	-0.013010777
21	0x3cc53a40	0.024075627
22	0x3d18121c	0.037126645
23	0x3a439ee6	0.00074623374
24	0xbd94828c	-0.07251462
25	0xbc0754f8	-0.008260004
26	0x3ca634a9	0.020288782
27	0xbd26fee6	-0.040770434
28	0x3daea376	0.085272714
29	0xbc880289	-0.016602771
30	0xbd8ee3b0	-0.06977022
31	0x3d5a3835	0.05327626
32	0x3cec69d1	0.028859051
33	0xbd28200f	-0.0410462
34	0x3dacf950	0.0844599
35	0xbd55f50b	-0.052235644
36	0x3c2e8f04	0.010654215
37	0xbd1eab39	-0.03873751
38	0x3d7c4a72	0.061594434
39	0xbd9be22e	-0.076115
40	0x3af53c3d	0.0018709969
41	0xbd8da03e	-0.069153294
42	0x3abb3b37	0.0014284615
43	0xbd8f0bb3	-0.06984653
44	0x3c1c5973	0.009542811
45	0x3d11d9f3	0.035608243
46	0x3d96ca8f	0.07362854
47	0x3d7f2585	0.06229164
48	0xbcb6e23f	-0.02232468
49	0x3db5065b	0.08839103
50	0xbd897d9f	-0.067134134
51	0x3d02bb26	0.03191676
52	0xbab3d376	-0.0013719636
53	0x3d3aa02a	0.0455629
54	0xbd0be136	-0.034150325
55	0xbae6d2b9	-0.0017610408
56	0xbd73cf85	-0.059524078
57	0xbd045bdc	-0.032314166
58	0xbcd19059	-0.025581526
59	0x3cb4c459	0.022066282
60	0xbd8b4aa0	-0.06801343
61	0xbc6c1bc2	-0.014410915
62	0x3ba6a7d6	0.0050859256
63	0x3d92de7c	0.07171342
64	0x3d9b5a41	0.07585574
65	0xbd94f13f	-0.072725765
66	0xbd1017e5	-0.035179038
67	0xbcc032ab	-0.02346166
68	0x3dafefcb	0.08590659
69	0x3d762622	0.06009496
70	0x3c17391f	0.009229927
71	0xbc0efbff	-0.008727073
72	0xbcc4790d	-0.023983503
73	0xbc850449	-0.016237395
74	0xbab1290f	-0.0013516265
75	0x3cf10f86	0.029426347
76	0xbdaabfa4	-0.08337334
77	0x3d960d0c	0.07326707
78	0x3cddefd4	0.027091898
79	0xbd64236e	-0.05569785
80	0x3b2231ff	0.0024749038
81	0x3d4a1659	0.04933772
82	0x3d0ba552	0.03409321
83	0xbc271c2b	-0.010199587
84	0xbbdb097e	-0.006684481
85	0x3d1f97d5	0.038963158
86	0xbda12330	-0.078680396
87	0xbcd47186	-0.025933038
88	0xbd43baf5	-0.047785718
89	0xbcb3a7aa	-0.021930534
90	0xbdb6e6f7	-0.08930772
91	0xbdc6f834	-0.0971531
92	0x3d87823e	0.066166386
93	0xb9fbbad5	-0.0004801365
94	0x3d0129ae	0.03153389
95	0x3d036c37	0.032085624
96	0xbdd217c9	-0.10258443
97	0xbdc62e63	-0.09676816
98	0xbd647c46	-0.05578258
99	0x3d2cb9c3	0.042169344
100	0x3d49370b	0.04912476
101	0x3d86b13d	0.06576774
102	0xbdc576b7	-0.09641784
103	0xbcec8f4d	-0.028876925
104	0x3d496a1f	0.04917347
105	0x3d9d4bf4	0.076805025
106	0x3d1fb591	0.038991515
107	0xbc80394c	-0.015652321
108	0x3d7e58fb	0.062096577
109	0x3cac3725	0.021022389
110	0x3dfa011c	0.12207243
111	0x3c4e8812	0.012605684
112	0x3e10135f	0.1406989
113	0x3e196b87	0.14982425
114	0x3cbb2030	0.022842497
115	0x3de1b8c7	0.110215716
116	0x3dfcbf40	0.123411655
117	0x3e209a65	0.15683897
118	0x3e5b0507	0.21388637
119	0x3d89883d	0.067154385
120	0x3d0093e2	0.031391032
121	0xbcd0d6ff	-0.025493143
122	0xbd8b20e6	-0.06793384
123	0xbcd5ac82	-0.026083235
124	0xbbc0edac	-0.0058877077
125	0xbd0100cb	-0.031494897
126	0x3d8f7e2b	0.070064865
127	0xbd79a079	-0.060944054
128	0xbbf01a72	-0.0073273713
129	0x3d80ac73	0.06282892
130	0x3da50b4a	0.08058794
131	0xbd326842	-0.04355646
132	0xbbdb3c6b	-0.006690552
133	0xbcae5b26	-0.021283697
134	0xbccb9e49	-0.02485575
135	0xbd76c707	-0.0602484
136	0xbd746233	-0.059663963
137	0x3d946d7f	0.07247447
138	0x3b2243a9	0.0024759567
139	0x3da1be0e	0.07897578
140	0xbd83ec63	-0.064415716
141	0x3d19cbec	0.03754799
142	0x3d997dfa	0.07494731
143	0x3d9c9b6d	0.076468326
144	0x3b9876d1	0.004652836
145	0x3d0dc74d	0.034613896
146	0xbcc6cd26	-0.024267744
147	0xbd260891	-0.040535513
148	0xbc85a0a0	-0.016311944
149	0x3d1843df	0.037174102
150	0x3d9ce5f1	0.07661045
151	0x3d658a50	0.05604011
152	0xbbfa3e7a	-0.0076368423
153	0xbdc1668f	-0.094433896
154	0xbc015d62	-0.007895799
155	0xbd4a10b9	-0.049332354
156	0x3d3b4136	0.045716487
157	0xbcbcf00f	-0.023063688
158	0x3d693142	0.05693174
159	0xbd5909f7	-0.05298802
160	0x3d9ca973	0.076495074
161	0xbda06805	-0.0783234
162	0x3cedafab	0.02901443
163	0x3be95479	0.0071206656
164	0xbdb52a56	-0.088459656
165	0xbd3ec298	-0.046572298
166	0xbc6a620c	-0.014305603
167	0xbc80e057	-0.015731974
168	0xbcaf7bb3	-0.02142129
169	0x3b3b7710	0.0028604902
170	0x3ca3f38c	0.020013593
171	0xbd4f317f	-0.050584313
172	0xbcd8f7dc	-0.026485376
173	0xbd03ad6c	-0.03214781
174	0x3d656f67	0.056014445
175	0x3d5af425	0.05345549
176	0x3d9bfa0a	0.076160505
177	0x3d8247ce	0.06361352
178	0xbda8d9b0	-0.082446456
179	0xbc8f2f8b	-0.017478725
180	0x3d616e69	0.055036936
181	0x3d56a3fe	0.05240249
182	0xbc1d1ef4	-0.009589899
183	0xbd0f61b7	-0.035005298
184	0x3da6ce32	0.081447974
185	0xbd71a435	-0.05899449
186	0x3da8c601	0.08240891
187	0xbcce7fab	-0.025207361
188	0xbd2ec200	-0.04266548
189	0x3d9e5298	0.07730597
190	0xbd113257	-0.0354484
191	0xbd53bbdf	-0.05169284
192	0xbc6aa1bd	-0.014320788
193	0x3ccdbfbe	0.025115844
194	0xbd83fe08	-0.06444937
195	0xbb8069bc	-0.0039188545
196	0x3d98a050	0.07452452
197	0xbd176c86	-0.03696873
198	0x3bd0502b	0.006357213
199	0xbdb588ae	-0.0886396
200	0xbdb30ab5	-0.087422766
201	0xbc8b916b	-0.017037114
202	0xbdcbde60	-0.09954524
203	0x3d018416	0.031620108
204	0x3ce2fcdb	0.027708462
205	0xbc378af9	-0.011202567
206	0x3c07b5f4	0.008283127
207	0x3cc0847c	0.023500673
208	0xbdc1d6db	-0.094648086
209	0x3c85be77	0.016326172
210	0x3d63bc7c	0.055599675
211	0xbc0367a4	-0.008020315
212	0xbc080df1	-0.008304105
213	0x3ca868da	0.02055781
214	0xbd4bc9f7	-0.049753156
215	0x3d8681bb	0.06567713
216	0xbd986ea4	-0.07442978
217	0x3d138ce1	0.036023024
218	0x3d242cda	0.040081836
219	0xbd99240a	-0.07477577
220	0x3d919290	0.07108033
221	0xbd63b5b0	-0.055593193
222	0xbd320212	-0.043459006
223	0x3c101cb3	0.008795905
224	0x3d51f4f5	0.051259
225	0x3da1f634	0.07908288
226	0xbd198c93	-0.037487578
227	0x3cc93e46	0.024565827
228	0x3d64b9b2	0.055841155
229	0xbc96bc63	-0.018400377
230	0xbbf08b04	-0.0073407907
231	0x3d6f8ece	0.0584858
232	0x3e2cd791	0.16879107
233	0x3e3aca4b	0.18241231
234	0x3db629b9	0.08894677
235	0x3d50270e	0.050818495
236	0x3e101b87	0.14073001
237	0x3d9b60b8	0.07586807
238	0x3e5fea57	0.21866737
239	0x3de2e15e	0.11078142
240	0x3d5eeb72	0.054423757
241	0xbc983264	-0.018578716
242	0xbc77184b	-0.0150814755
243	0xbcdd26f7	-0.026996119
244	0xbd5c5ac6	-0.053797506
245	0xbd32fe78	-0.04369971
246	0x3d66e3fa	0.05636976
247	0xbd9809bd	-0.074237324
248	0xbd28c1b0	-0.04120034
249	0x3d86c981	0.065814026
250	0x3d477268	0.04869309
251	0x3bac2427	0.005253333
252	0x3d0561a5	0.032563824
253	0x3caa2aba	0.020772327
254	0xbb36b42c	-0.0027878387
255	0x3d0f9062	0.035049804

Linear_Trend.bias f4 [24]
0	0x3cc14e9e	0.023597058
1	0xbd3022a0	-0.04300177
2	0x3d808f34	0.06277314
3	0x3c1ee417	0.009697936
4	0xbd6b6380	-0.057467937
5	0x3d59a4ac	0.05313556
6	0x3d722526	0.05911746
7	0x3d75c55a	0.060002662
8	0xbd40156d	-0.046895433
9	0xbcf26be9	-0.029592471
10	0xbc8b0bdc	-0.016973428
11	0xbb31bb37	-0.0027119645
12	0xbb930cf5	-0.0044876286
13	0x3b8dbd07	0.0043255123
14	0xbc076498	-0.0082637295
15	0x3d969bd6	0.07353942
16	0x3c61051b	0.013734127
17	0xbc8b642a	-0.017015535
18	0x3c965778	0.018352255
19	0x3c7ff1ae	0.015621586
20	0x3c15750c	0.009122144
21	0x3d951065	0.07278518
22	0x3be9cfbd	0.00713536
23	0x3d90ec9a	0.07076378
