AI_models/length_7.pth (torch, 2536 bytes, 4 tensors)

Linear_Seasonal.weight f4 [7, 5]
0	0xbef041eb	-0.4692529
1	0xbf0d783c	-0.5526159
2	0xbe3802ee	-0.17969868
3	0xbdaffb9d	-0.08592913
4	0x3e99c19d	0.30030528
5	0xbe3cb15a	-0.18427029
6	0xbf126dcb	-0.5719878
7	0x3cc13bd0	0.023588091
8	0x3e9ba615	0.30400148
9	0x3ed0a777	0.40752766
10	0xbef47a08	-0.47749352
11	0xbf2f00a2	-0.6836034
12	0xbc7f3272	-0.015575992
13	0x3f033b89	0.5126272
14	0x3df57d73	0.11986818
15	0xbed85528	-0.4225247
16	0x3b446349	0.0029966405
17	0xbe6558d5	-0.22397168
18	0xbe7bed93	-0.24602346
19	0xbdd26786	-0.10273652
20	0xbefa74e0	-0.48917294
21	0xbd8f68b4	-0.070023924
22	0x3eb2a49f	0.3489122
23	0x3e729d5f	0.23692845
24	0x3edcbf00	0.4311447
25	0xbe344ba5	-0.17606981
26	0xbdddf645	-0.10837988
27	0x3ded0920	0.11574006
28	0x3e35c10a	0.1774942
29	0xbda741be	-0.08166836
30	0x3e0ceec6	0.1376296
31	0x3e06f194	0.13178092
32	0x3d5c4752	0.053778954
33	0x3f115c9d	0.5678194
34	0x3c03e3f1	0.008049951

Linear_Seasonal.bias f4 [7]
0	0xbe926a2e	-0.28596634
1	0x3eab3892	0.33441597
2	0x3e1dad0e	0.15398046
3	0x3eeb516f	0.45960566
4	0x3e81c9fc	0.25349414
5	0x3eb51220	0.3536539
6	0xbc5b2756	-0.013376078

Linear_Trend.weight f4 [7, 5]
0	0x3ef2d750	0.47429895
1	0xbe5cad43	-0.21550469
2	0x3e5b7d5c	0.2143454
3	0x3f022853	0.5084278
4	0x3cb46c2d	0.022024238
5	0xbdb409d7	-0.08790939
6	0xbd201764	-0.039084807
7	0x3e856976	0.26057023
8	0x3eb2084c	0.34771955
9	0x3f05a1ed	0.52200204
10	0x3e47ec4e	0.19523737
11	0xbb843ff2	-0.004035943
12	0xbd7c9a23	-0.061670434
13	0x3ec57488	0.3856547
14	0x3efb1808	0.49041772
15	0x3e84b3d0	0.25918436
16	0x3dc92989	0.09822375
17	0x3d5d8a3f	0.05408692
18	0x3e86ac7a	0.26303464
19	0x3ead3b21	0.33834174
20	0x3e7fd2e5	0.24982794
21	0x3eb1be4a	0.34715492
22	0x3e792340	0.24329853
23	0xbc536499	-0.012902402
24	0x3e3d5f10	0.18493295
25	0xbe6d1b5e	-0.23154971
26	0x3ecc7eec	0.39940584
27	0x3eaabc63	0.33346853
28	0x3e36fc9c	0.178698
29	0x3eace626	0.3376934
30	0x3e22344d	0.15840264
31	0xbd133ced	-0.035946775
32	0x3ebfd0a7	0.37463877
33	0x3f0c97fe	0.5491942
34	0xbcb5e19b	-0.022202304

Linear_Trend.bias f4 [7]
0	0x3edd0991	0.4317136
1	0x3effe685	0.4998056
2	0x3da88cc3	0.08229973
3	0x3f1267d9	0.5718971
4	0x3eaf722d	0.34266797
5	0x3ee6250e	0.44950145
6	0xbde9f75f	-0.114241354
