AI_models/weight_7.pth (torch, 2536 bytes, 4 tensors)

Linear_Seasonal.weight f4 [7, 5]
0	0x3e08e10f	0.13367103
1	0xbeefc518	-0.46830058
2	0x3ca514b8	0.020151481
3	0x3e3fa6df	0.18716
4	0xbb4aa096	-0.003091847
5	0x3e6db7b4	0.23214608
6	0xbdb91312	-0.090368405
7	0x3e80466d	0.2505373
8	0xbe5ffab6	-0.21872982
9	0x3e3edf2c	0.18639821
10	0xbec1f90c	-0.3788532
11	0xbeb387fd	-0.35064688
12	0xbdd8c7a4	-0.105849534
13	0x3e1909a3	0.14945082
14	0xbcdc8b95	-0.026922027
15	0xbe23aa6b	-0.15982978
16	0xbd8de334	-0.06928101
17	0x3e8916ee	0.26775306
18	0x3e272078	0.1632098
19	0x3ef5e215	0.4802405
20	0xbd496e9f	-0.049177762
21	0x3c58c4bc	0.013230499
22	0xbdf50562	-0.11963917
23	0x3e8998f9	0.2687452
24	0xbde430ae	-0.111420974
25	0xbe5b9314	-0.21442825
26	0xbf0766da	-0.52891314
27	0xbf0ca23c	-0.5493505
28	0x3e4d6014	0.20056182
29	0x3ef1d325	0.47231403
30	0xbea4d7e7	-0.3219597
31	0xbeb9ad5e	-0.3626508
32	0xbec5e625	-0.3865215
33	0x3e83ac4f	0.257174
34	0x3e8e6f97	0.2781951

Linear_Seasonal.bias f4 [7]
0	0x3f13149b	0.57453316
1	0x3ed6ee7f	0.41978833
2	0x3f44b5f0	0.76840115
3	0x3f551d6c	0.8324802
4	0x3c101bce	0.008795692
5	0x3f1e3496	0.6179899
6	0x3e14323f	0.14472292

Linear_Trend.weight f4 [7, 5]
0	0x3dd63e56	0.104611084
1	0x3e5928d6	0.21206984
2	0x3e85061d	0.25981227
3	0x3ec74c1c	0.38925254
4	0x3d258a26	0.04041495
5	0x3d93aa74	0.07210246
6	0x3ed9a48a	0.42508346
7	0x3ef23622	0.47306925
8	0xbe034879	-0.12820615
9	0x3e2fb740	0.17159748
10	0x3c6a7ae5	0.014311527
11	0xbd5595df	-0.05214488
12	0x3ef08824	0.46978867
13	0x3e99e75c	0.30059326
14	0x3e90448f	0.28177306
15	0x3dae6020	0.08514428
16	0x3dabb84a	0.0838476
17	0x3e1d8f87	0.15386783
18	0x3e14d6f2	0.1453512
19	0x3f0d2a85	0.55143005
20	0x3db4152e	0.08793102
21	0x3dce094c	0.10060367
22	0xbd49517e	-0.049149983
23	0x3f259c95	0.6469205
24	0x3e7be137	0.24597631
25	0xbd584716	-0.052802168
26	0x3f13127f	0.574501
27	0x3e1b2c56	0.15153632
28	0x3efff3ef	0.49990794
29	0xbe0f0b17	-0.13969074
30	0x3ea9fcbb	0.3320063
31	0x3e3c6d5f	0.18401097
32	0x3e6891cd	0.22711869
33	0x3e8b32b2	0.27187115
34	0x3cdcfbb4	0.02697549

Linear_Trend.bias f4 [7]
0	0x3d29045b	0.04126392
1	0xbd533676	-0.05156561
2	0x3edefef1	0.4355388
3	0x3e14287c	0.14468569
4	0xbe0535c7	-0.13008796
5	0xbdc7d57e	-0.09757517
6	0x3e04f406	0.12983713
